==========================================
SLURM_JOB_ID = 154670
SLURM_NODELIST = gpu[11-12,17-18]
==========================================
Node IP: 10.151.0.11
distributed
Rank: 3
World size: 4
Available devices: 1
Current cuda device: 0
Reducer: <gradient_reducers.SageReducer object at 0x2ae0e08eaed0>
Current cuda device after: 0
NeuMF(
  (mf_user_embed): Embedding(138493, 64)
  (mf_item_embed): Embedding(26744, 64)
  (mlp_user_embed): Embedding(138493, 128)
  (mlp_item_embed): Embedding(26744, 128)
  (mlp): ModuleList(
    (0): Linear(in_features=256, out_features=256, bias=True)
    (1): Linear(in_features=256, out_features=128, bias=True)
    (2): Linear(in_features=128, out_features=64, bias=True)
  )
  (final): Linear(in_features=128, out_features=1, bias=True)
)
31832577 parameters
[Iteration 0] [Rank 3] a = 1.0, b = 1.0, c = 1.0, delta = 0.0002875, e = 0.0, d = 0.00021220399466873198, m = 0.00021220399466873198, bits = 433088
[Iteration 1] [Rank 3] a = 1.5166772603988647, b = 0.9526197399106618, c = 0.95, delta = 0.0004360447346698493, e = 0.00016847520701826938, d = 0.00016847520701826938, m = 0.0001903396008435007, bits = 745664
…
[Iteration 34] [Rank 2] a = 1.3874109983444214, b = 0.9534688784936393, c = 0.95, delta = 6.509510421892628e-05, e = 0.0018705051746203268, d = 0.0018705051746203268, m = 0.00284585280580421, bits = 9283328
[Iteration 35] [Rank 2] a = 0.931566059589386, b = 0.9545806493721531, c = 0.95, delta = 6.064038825570606e-05, e = 0.004098757068898317, d = 0.004098757068898317, m = 0.0028806557020012685, bits = 28987392
distributed
Rank: 0
World size: 4
Available devices: 1
Current cuda device: 0
Reducer: <gradient_reducers.SageReducer object at 0x2b2769e9aed0>
Current cuda device after: 0
NeuMF(
  (mf_user_embed): Embedding(138493, 64)
  (mf_item_embed): Embedding(26744, 64)
  (mlp_user_embed): Embedding(138493, 128)
  (mlp_item_embed): Embedding(26744, 128)
  (mlp): ModuleList(
    (0): Linear(in_features=256, out_features=256, bias=True)
    (1): Linear(in_features=256, out_features=128, bias=True)
    (2): Linear(in_features=128, out_features=64, bias=True)
  )
  (final): Linear(in_features=128, out_features=1, bias=True)
)
31832577 parameters
[Iteration 0] [Rank 0] a = 1.0, b = 1.0, c = 1.0, delta = 0.0002875, e = 0.0, d = 0.0001299297885936159, m = 0.0001299297885936159, bits = 433088
[Iteration 1] [Rank 0] a = 0.9184738397598267, b = 0.9526410537415226, c = 0.95, delta = 0.00026406123652122915, e = 0.00021119873518251443, d = 0.00021119873518251443, m = 0.00017056426188806516, bits = 745664
distributed
Rank: 1
World size: 4
Available devices: 1
Current cuda device: 0
Reducer: <gradient_reducers.SageReducer object at 0x2b779b735b50>
Current cuda device after: 0
NeuMF(
  (mf_user_embed): Embedding(138493, 64)
  (mf_item_embed): Embedding(26744, 64)
  (mlp_user_embed): Embedding(138493, 128)
  (mlp_item_embed): Embedding(26744, 128)
  (mlp): ModuleList(
    (0): Linear(in_features=256, out_features=256, bias=True)
    (1): Linear(in_features=256, out_features=128, bias=True)
    (2): Linear(in_features=128, out_features=64, bias=True)
  )
  (final): Linear(in_features=128, out_features=1, bias=True)
)
31832577 parameters
[Iteration 0] [Rank 1] a = 1.0, b = 1.0, c = 1.0, delta = 0.0002875, e = 0.0, d = 0.00021248672389923066, m = 0.00021248672389923066, bits = 433088
[Iteration 1] [Rank 1] a = 0.5751732587814331, b = 0.9527182853956323, c = 0.95, delta = 0.0001653623185120523, e = 0.00036600869606001423, d = 0.00036600869606001423, m = 0.0002892477099796225, bits = 745664
…
