==========================================
SLURM_JOB_ID = 151257
SLURM_NODELIST = gpu[14-15,21-22]
==========================================
Node IP: 10.151.0.14
distributed
Rank: 3
World size: 4
Available devices: 1
Current cuda device: 0
Reducer: <gradient_reducers.SageReducer object at 0x2b6471ae1150>
Current cuda device after: 0
NeuMF(
  (mf_user_embed): Embedding(138493, 64)
  (mf_item_embed): Embedding(26744, 64)
  (mlp_user_embed): Embedding(138493, 128)
  (mlp_item_embed): Embedding(26744, 128)
  (mlp): ModuleList(
    (0): Linear(in_features=256, out_features=256, bias=True)
    (1): Linear(in_features=256, out_features=128, bias=True)
    (2): Linear(in_features=128, out_features=64, bias=True)
  )
  (final): Linear(in_features=128, out_features=1, bias=True)
)
31832577 parameters
[Iteration 0] [Rank 3] a = 1.0, b = 1.0, c = 1.0, delta = 0.0002875, e = 0.0, d = 0.00021220399466873198, m = 0.00021220399466873198, bits = 433088
[Iteration 1] [Rank 3] a = 0.8228726387023926, b = 0.9526834621244114, c = 0.95, delta = 0.00021411282068584114, e = 0.00029620599048578444, d = 0.00031756775456790695, m = 0.00026488587461831947, bits = 734272
…
[Iteration 34] [Rank 2] a = 1.2013682126998901, b = 0.9669070744171719, c = 1.0, delta = 6.104167823650641e-06, e = 0.028789971983732263, d = 0.030652529325539683, m = 0.019694496346575132, bits = 66501632
[Iteration 35] [Rank 2] a = 0.7578631639480591, b = 0.985495377143598, c = 1.0, delta = 4.5590236368298065e-06, e = 0.06598871966916156, d = 0.0686497357722562, m = 0.021054364108399604, bits = 140324352
distributed
Rank: 1
World size: 4
Available devices: 1
Current cuda device: 0
Reducer: <gradient_reducers.SageReducer object at 0x2b9ee8995150>
Current cuda device after: 0
NeuMF(
  (mf_user_embed): Embedding(138493, 64)
  (mf_item_embed): Embedding(26744, 64)
  (mlp_user_embed): Embedding(138493, 128)
  (mlp_item_embed): Embedding(26744, 128)
  (mlp): ModuleList(
    (0): Linear(in_features=256, out_features=256, bias=True)
    (1): Linear(in_features=256, out_features=128, bias=True)
    (2): Linear(in_features=128, out_features=64, bias=True)
  )
  (final): Linear(in_features=128, out_features=1, bias=True)
)
31832577 parameters
[Iteration 0] [Rank 1] a = 1.0, b = 1.0, c = 1.0, delta = 0.0002875, e = 0.0, d = 0.00021248672389923066, m = 0.00021248672389923066, bits = 433088
[Iteration 1] [Rank 1] a = 1.1359405517578125, b = 0.9526492501747256, c = 0.95, delta = 0.00029556304798461497, e = 0.00022762844491038223, d = 0.0002497127392482236, m = 0.00023109973157372713, bits = 734272
distributed
Rank: 0
World size: 4
Available devices: 1
Current cuda device: 0
Reducer: <gradient_reducers.SageReducer object at 0x2b2234e67290>
Current cuda device after: 0
NeuMF(
  (mf_user_embed): Embedding(138493, 64)
  (mf_item_embed): Embedding(26744, 64)
  (mlp_user_embed): Embedding(138493, 128)
  (mlp_item_embed): Embedding(26744, 128)
  (mlp): ModuleList(
    (0): Linear(in_features=256, out_features=256, bias=True)
    (1): Linear(in_features=256, out_features=128, bias=True)
    (2): Linear(in_features=128, out_features=64, bias=True)
  )
  (final): Linear(in_features=128, out_features=1, bias=True)
)
31832577 parameters
[Iteration 0] [Rank 0] a = 1.0, b = 1.0, c = 1.0, delta = 0.0002875, e = 0.0, d = 0.0001299297885936159, m = 0.0001299297885936159, bits = 433088
[Iteration 1] [Rank 0] a = 0.8774484992027283, b = 0.9526454732324382, c = 0.95, delta = 0.0002283044595969841, e = 0.00022005758440480643, d = 0.0002381836695156663, m = 0.00018405672905464108, bits = 734272
…
