==========================================
SLURM_JOB_ID = 151140
SLURM_NODELIST = gpu[15,21-23]
==========================================
Node IP: 10.151.0.15
distributed
Rank: 0
World size: 4
Available devices: 1
Current cuda device: 0
Reducer: <gradient_reducers.ExactReducer object at 0x2b4296025910>
Current cuda device after: 0
NeuMF(
  (mf_user_embed): Embedding(138493, 64)
  (mf_item_embed): Embedding(26744, 64)
  (mlp_user_embed): Embedding(138493, 128)
  (mlp_item_embed): Embedding(26744, 128)
  (mlp): ModuleList(
    (0): Linear(in_features=256, out_features=256, bias=True)
    (1): Linear(in_features=256, out_features=128, bias=True)
    (2): Linear(in_features=128, out_features=64, bias=True)
  )
  (final): Linear(in_features=128, out_features=1, bias=True)
)
31832577 parameters
[Rank 0] bits = 1018642464
[Rank 0] bits = 1018642464
[Rank 0] bits = 1018642464
[Rank 0] bits = 1018642464
[Rank 0] bits = 1018642464
[Rank 0] bits = 1018642464
[Rank 0] bits = 1018642464
[Rank 0] bits = 1018642464
[Rank 0] bits = 1018642464
[Rank 0] bits = 1018642464
[Rank 0] bits = 1018642464
[Rank 0] bits = 1018642464
[Rank 0] bits = 1018642464
…
[Rank 2] bits = 1018642464
[Rank 2] bits = 1018642464
[Rank 2] bits = 1018642464
[Rank 2] bits = 1018642464
[Rank 2] bits = 1018642464
[Rank 2] bits = 1018642464
[Rank 2] bits = 1018642464
[Rank 2] bits = 1018642464
[Rank 2] bits = 1018642464
[Rank 2] bits = 1018642464
[Rank 2] bits = 1018642464
[Rank 2] bits = 1018642464
[Rank 2] bits = 1018642464
[Rank 2] bits = 1018642464
[Rank 2] bits = 1018642464
distributed
Rank: 1
World size: 4
Available devices: 1
Current cuda device: 0
Reducer: <gradient_reducers.ExactReducer object at 0x2b8240d6bed0>
Current cuda device after: 0
NeuMF(
  (mf_user_embed): Embedding(138493, 64)
  (mf_item_embed): Embedding(26744, 64)
  (mlp_user_embed): Embedding(138493, 128)
  (mlp_item_embed): Embedding(26744, 128)
  (mlp): ModuleList(
    (0): Linear(in_features=256, out_features=256, bias=True)
    (1): Linear(in_features=256, out_features=128, bias=True)
    (2): Linear(in_features=128, out_features=64, bias=True)
  )
  (final): Linear(in_features=128, out_features=1, bias=True)
)
31832577 parameters
[Rank 1] bits = 1018642464
[Rank 1] bits = 1018642464
[Rank 1] bits = 1018642464
[Rank 1] bits = 1018642464
[Rank 1] bits = 1018642464
[Rank 1] bits = 1018642464
[Rank 1] bits = 1018642464
[Rank 1] bits = 1018642464
[Rank 1] bits = 1018642464
[Rank 1] bits = 1018642464
[Rank 1] bits = 1018642464
[Rank 1] bits = 1018642464
[Rank 1] bits = 1018642464
[Rank 1] bits = 1018642464
distributed
Rank: 3
World size: 4
Available devices: 1
Current cuda device: 0
Reducer: <gradient_reducers.ExactReducer object at 0x2b34be969f10>
Current cuda device after: 0
NeuMF(
  (mf_user_embed): Embedding(138493, 64)
  (mf_item_embed): Embedding(26744, 64)
  (mlp_user_embed): Embedding(138493, 128)
  (mlp_item_embed): Embedding(26744, 128)
  (mlp): ModuleList(
    (0): Linear(in_features=256, out_features=256, bias=True)
    (1): Linear(in_features=256, out_features=128, bias=True)
    (2): Linear(in_features=128, out_features=64, bias=True)
  )
  (final): Linear(in_features=128, out_features=1, bias=True)
)
31832577 parameters
[Rank 3] bits = 1018642464
[Rank 3] bits = 1018642464
[Rank 3] bits = 1018642464
[Rank 3] bits = 1018642464
[Rank 3] bits = 1018642464
[Rank 3] bits = 1018642464
[Rank 3] bits = 1018642464
[Rank 3] bits = 1018642464
[Rank 3] bits = 1018642464
[Rank 3] bits = 1018642464
[Rank 3] bits = 1018642464
[Rank 3] bits = 1018642464
[Rank 3] bits = 1018642464
…
